Lecture-8-2/models/bit_train_CNN_acc85.pt (torch, 177040 bytes, 7 tensors)

weight f4 [8, 3, 5, 5]
00000000: 6d0c 963d 76f4 1bbd 7342 ec3b ad04 4fbd
00000010: d91f 6c3d 395e a9bc 4875 82bd 85fa bbbd
00000020: 1808 cfbd 81c8 4f3d 51e8 f4bc a0cd d33c
00000030: e89e f83d 5679 353d 5911 a23c a4bf 9d3d
00000040: 3429 c23d 1b35 8ebd a769 b03d 4e59 173c
00000050: 5258 413e 990d 98bc 1cf6 27bd 1354 013d
00000060: 81fa d93d ac83 06be 4c74 11be 951b 4f3d
00000070: 9426 983a 28f9 743d 409b dfbd 293e 2bbe
00000080: 7058 b53c 4ad2 7f3d 92d0 d8bd 75d0 bcbd
00000090: 1924 9ebd d114 00be 6031 8c3d 4acb 0d3d
000000a0: 6c82 4c3e 72f9 b0bd 5ae5 81bd 5b21 5c3d
000000b0: c5d6 7a3d bb07 913d 3394 0cbd 2efd e23d
000000c0: abe7 e03d 7fa9 573d 4880 85be a90c 9dbe
000000d0: 452b d5bd 4618 ca3c 9303 ebbd 12fc 69be
000000e0: ef0e dcbe dd9e 39be 0f5c 74bc 5554 a9bd
000000f0: c6ba 9fbe 19ee 90be 9e9f 9ebd 8644 803d
00000100: 9c1f 163e d637 d5bd e497 8fbe 6c40 e5bd
00000110: ff6b b93d 2387 543c 648b eb3d dd65 12bd
00000120: 5d6f c2bd 07a9 d0bc 3db1 5a3d 0ab6 cabc
00000130: 8acd 5dbc 0eb3 0e3c d3a0 b73d 925a 223d
00000140: 7811 113e fcfa f73c 291f 27be e5ac 0bbe
00000150: cede 9d3d 9803 c7bd 76f4 53be 5c84 06be
00000160: ab09 743d 9c41 5ebd 14e0 5e3c 703e 083c
00000170: c4e9 15be 6163 8abc 2e80 8f3d 5cf1 3f3d
00000180: ed1d 90bd 40f0 9fbb 20dd f53d dd1d 1fbd
00000190: 5f04 e43d 4538 903d 97bd a93d 5746 8ebd
000001a0: 2120 0b3e 3c76 b23d 2010 8cbd 4dd2 f1bd
000001b0: 0061 2cbc 6ea2 a1bd f443 9d3c fef3 33be
000001c0: ccda f4bd 11d4 91bd 97d8 0c3e 348d 3cbe
000001d0: 29b8 00be 04d6 2b3c 04ae c23d 5be9 373d
000001e0: 1699 08be 8e42 89bd 4e3e fc3d 1897 833d
000001f0: aeb7 823c 7ff0 cb3c b703 973d c10b e5bd
00000200: 707c 843c bd89 423d 9070 4cbd 93e3 263d
00000210: ae39 dcbd 4566 efbd 1db8 013e 7295 b9bd
00000220: c6e0 ac3c 9180 33be 3ee5 b8bb 0164 62bd
00000230: e8ae 403c 1cee c4bc 0b88 d5bc 78fa 5e3d
00000240: de5b e53d 13a4 57bd 6dfb e8bc fdf3 fe3d
00000250: 2d4b 9b3d bc43 44bd 40d2 173e acb0 e63b
00000260: 8013 973d f390 0a3d fe9f a63d 5011 dd3d
00000270: 50dc 8cbd e571 da3d 21c6 21bb f832 823d
00000280: 6bf5 9cbd 0b4a c2bc 9b7d f53b f586 f33d
00000290: 0544 27bc 3796 f53d 24a1 bb3c b342 db3d
000002a0: a4c5 52bd fe39 cb3d 3359 033e e735 f73d
000002b0: 1eab 0b3e 9a4f a2bd 8af3 873d 1f0c 2d3d
000002c0: c3ae 53bd 5cb3 23be fdae 12be 3658 f2bd
000002d0: f071 0ebc 86b4 d9bd 7bca 12be 81b7 c8bd
000002e0: 7d45 4a3d 0ab1 ac3d 66fe ffbd 4f8a 40bd
000002f0: 791c f2bb c09b 103c ef4d 563d 38d0 063d
00000300: 5db1 2c3d 35e7 34bc b173 d13d 5fab 5a3d
00000310: b4dd e1bd 51a6 e33d 9589 babd 5ab7 9abb
00000320: 001c bd3d bbae 1bbe 6100 abbd 1045 b8bd
00000330: a436 8c3a fa51 cbbd b542 27be 6782 35be
00000340: 1608 90bd 9297 1e3c 568d b5bd cf15 29be
00000350: 5847 23be 74c4 acbd 658a 0e3d 8e91 0bbe
00000360: 81f9 2cbe aa97 d0bd 9899 823c cf32 25bd
00000370: 0f0e 2bbe c812 c33d f5ba 943d 4461 85bd
00000380: ebe2 3b3b ca40 c53d d2ea e23c e23d e73d
00000390: e6bc dd3d 6792 81bc a2f2 13bd 970b 103e
000003a0: 6c97 eab9 b6ab b4bd f549 5bbd 4490 7a3c
000003b0: a8c7 c1bc 7af1 e33c 8283 32bc 7a56 d7bd
000003c0: 0823 ebbc b4dd 853d a53c e33d 0dd0 05bc
000003d0: 8978 b53d 2d2f f1bc 2be1 11bd df13 efbc
000003e0: 66a2 643d e487 3c3d ae86 163e 9f68 bc3d
000003f0: 6780 173e bfcc 813d d459 0c3d 96a3 083e
0.07326589 -0.038074933 0.00721007 -0.05054157 0.05764756 -0.020674812 -0.06370026 -0.09178642
-0.10108966 0.050728325 -0.029895933 0.025854886 0.12139684 0.044305168 0.019783663 0.07702568
0.09480515 -0.06943723 0.086139016 0.0092376005 0.18881348 -0.018561171 -0.041006193 0.03157432
0.10643483 -0.13136166 -0.1420452 0.050563414 0.0011608177 0.059807926 -0.109182835 -0.16722931
0.022136897 0.062456407 -0.10586657 -0.092194475 -0.07721729 -0.12507941 0.06845355 0.0346177
0.19971627 -0.08641328 -0.063425735 0.053742748 0.061239976 0.070815526 -0.03432102 0.110834464
0.10981687 0.05265188 -0.26074433 -0.3067372 -0.10408644 0.024669778 -0.11475291 -0.22850063
-0.42980143 -0.18127008 -0.014914527 -0.08268038 -0.31197184 -0.28306654 -0.07745288 0.0626307
0.14660496 -0.104110405 -0.2804557 -0.11193928 0.09053802 0.012971672 0.11501196 -0.035741676
-0.09493897 -0.025471224 0.053391684 -0.024745006 -0.013537774 0.008709682 0.08966222 0.039637156
0.1416682 0.030271046 -0.1632048 -0.13640173 0.07708512 -0.09717482 -0.20698723 -0.13136429
0.059579533 -0.05426179 0.013603229 0.0083156675 -0.14639956 -0.01689309 0.0700687 0.046861038
-0.07036958 -0.004880935 0.12005067 -0.03884684 0.11133646 0.070419826 0.082881145 -0.0694701
0.13586475 0.08713958 -0.06839013 -0.1180769 -0.0105211735 -0.07892309 0.019197442 -0.17573544
-0.11955795 -0.071205266 0.13754497 -0.1841324 -0.12570252 0.010488037 0.09505847 0.04490028
-0.13339648 -0.067021474 0.12316571 0.06425303 0.015956726 0.02489495 0.073737554 -0.111838825
0.016172618 0.04749464 -0.049912035 0.040744375 -0.10753189 -0.11689428 0.1266789 -0.090617076
0.021103274 -0.17529513 -0.005642562 -0.055271152 0.011760451 -0.02403932 -0.026065847 0.054438084
0.11199163 -0.052646708 -0.028440202 0.12448881 0.07582698 -0.04791616 0.14826298 0.007040104
0.07376766 0.03382964 0.08135985 0.10794318 -0.06877959 0.10666255 -0.0024684744 0.06357378
-0.07663997 -0.023716947 0.00749178 0.118909754 -0.010209088 0.11991542 0.022903986 0.10706081
-0.051458016 0.099231705 0.12826996 0.12070828 0.13639495 -0.07925339 0.06638248 0.042247888
-0.051680338 -0.15986389 -0.14324565 -0.11833231 -0.008694157 -0.10630135 -0.14335053 -0.098006256
0.049382675 0.08432205 -0.124996945 -0.0470069 -0.007388648 0.008826196 0.052320417 0.032913417
0.042161334 -0.011041452 0.102271445 0.05338609 -0.11028615 0.11115707 -0.09108273 -0.0047215642
0.09233856 -0.15203373 -0.08349682 -0.089975476 0.0010697437 -0.09927745 -0.1633404 -0.17725526
-0.07032792 0.009679692 -0.08864848 -0.16512226 -0.15945184 -0.08435908 0.034799952 -0.13629743
-0.16892053 -0.101851776 0.01594238 -0.040331658 -0.16704582 0.095250666 0.07262222 -0.065126926
0.002866919 0.09631498 0.027699862 0.112911 0.10827045 -0.01581688 -0.036120065 0.14066921
-0.00044744776 -0.08821814 -0.053537328 0.015293185 -0.023654774 0.027825106 -0.010895612 -0.10514541
-0.028703228 0.06536427 0.110955514 -0.008167279 0.08860881 -0.02944144 -0.035615128 -0.02918428
0.055818938 0.046028033 0.14699814 0.091996424 0.14795075 0.0633788 0.034265354 0.13343653

bias f4 [8]
00000000: fea7 8e3c a205 d8bc dc55 713e 6f07 12be
00000010: ba02 cc3d 7d39 c13d f0de 5e3d 2fce 283e
0.01741409 -0.026369873 0.23567909 -0.14260648 0.099614576 0.09434793 0.05441183 0.16484903

weight f4 [4, 8, 3, 3]
00000000: fa19 8b3e efa9 033e 1b4e 6b3e 730b f93c
00000010: 3f85 6d3e 9b77 b43d 6800 3a3e ce94 283e
00000020: bc4e 173e 0439 c93c ccc8 503e cbf1 703c
00000030: e3a1 01bd 3f10 aa3c 8339 c73d 7bc6 883b
00000040: 9f69 b73b be31 903b 4164 423b 47b7 be3c
00000050: b2be 1ebd a5a4 7fbe 6c28 cfbd 55c2 91be
00000060: a108 74be 37b6 89be 8af1 abbe 50b8 56ba
00000070: f64f 7c3d d7c9 6e3c b09c 7a3d a432 e8bd
00000080: 552d b23d 66be 16bd f87d e8bc bead bbbd
00000090: 1328 623e f852 f03d 8677 333e 59e5 6ebc
000000a0: cf0a 843e 8fe3 483d ff9b c6bd 6b25 503e
000000b0: 348d 6e3e ebbc 163d 13d4 f9bc c3ff 12be
000000c0: 8e04 23be 8639 c7bc c65e 35bb ddd8 a43b
000000d0: a1b9 bbbd b3de 16bd 37c2 5d3e d34b 173e
000000e0: 3640 6e3e ef97 50bd 1e3e 163e 42ac b43a
000000f0: b7d0 40bb dabd 333d c707 84bc 1657 1dbe
00000100: 7ffa 4b3e 2f95 073b 3f4b 20be 8777 9bbc
00000110: 25ad 053e 82a0 403d 3a99 d03d b9ba e83d
00000120: 12e3 9dbe 4bef 14be d8ec 37be c6c5 57be
00000130: 0eef 87be ba5f 70be f204 ebbd f8aa 83be
00000140: ee9d b7be 1482 c13c 2e6f 893d ec57 8abd
00000150: ad8c 203c a9df b9bd e761 41be 1bf2 12be
00000160: 1039 48be 16f4 4fbe 0a0e 263d 350b 41bc
00000170: 8a6c 26bd 0043 4ebd a465 e73d a4d9 06be
00000180: c644 e8bd c575 033e 33dc 37bd fb79 df3d
00000190: 4a37 a9bd c03c c1bd b11a f93d c380 e3bd
000001a0: adfd 1cbe 4752 083e c62b 00bc 75bc 43be
000001b0: 08d3 903d 8f6b 833e d527 153e 8c34 05be
000001c0: d29f 333d 012c f73d 5c06 1dbd 9285 03be
000001d0: fa7f 0d3e bddf a6be 05c9 52be 1442 02be
000001e0: 1f83 40be 16fc cebd 48cd 4cbe 785a 96be
000001f0: f775 8cbe c804 68be d5b1 73bd 6fb6 a63d
00000200: 1cdf 2b3e 596a 18be d695 5e3d cc5f 5e3e
00000210: 34fd 41be aab2 cd3d ccef 713d 2277 6dbe
00000220: 1280 4f3d 2ffc efbd e9ef 1fbe e758 3dbd
00000230: 1033 b6bd f68d 26be 0685 9bbe cd73 53bd
00000240: 5777 3fbe 6f2c 9bbe 89d1 72be b44e e7be
00000250: 2be2 a0be f247 82be 37b8 bbbe 9998 66be
00000260: 79db 96be d77b 183e e1ed 913e 37cb af3e
00000270: 1f9e 543e 0c30 7f3e f553 243e 3564 173e
00000280: f305 efbd fd55 953d c848 dcbd 21db aa3d
00000290: 6d3a d1bc 30e7 b0bc 1f1a 2f3d 3b81 d9bd
000002a0: e6d3 8fbd d5c5 0bbe 29c5 a03b 2c23 32bd
000002b0: 0c50 0cbb 92e8 30bd 7296 fcbc d086 87bd
000002c0: f3d9 a0bd c3c3 f23c ef46 853d 609b 0cbd
000002d0: 0ade 73bd 0843 553e ba92 453e ece3 163e
000002e0: 1ac8 363e b5e4 01be ca44 383d 39a7 a0bd
000002f0: 8e60 163d bf0b c93c 58af 133e a021 0b3e
00000300: a8e8 b83c fe5c 853d e2d4 323d fd1c 8e3d
00000310: 9f76 d3bd 758e ba3d 591e e63c bb1a 793d
00000320: 11a0 f13d c1fe 013e db00 bfbd 63e7 86bd
00000330: bb4a 073e 3517 603d 4b3b 1b3e 7c36 693e
00000340: 70a0 713e 5934 2e3e 51d8 483e d921 2d3e
00000350: 738a 9a3c 58dd 443e cbd6 dfbd 1dca 963d
00000360: f550 b0bd 794d d5be e5dd 44be 71be 9ebe
00000370: 3dc5 c5be a366 36be d18a d7be b1e1 c3be
00000380: 16ed 24be 6267 ddbd 69d4 2e3e fb3b 613e
00000390: 7244 02be 6de1 343e 69b5 a33d feca 7d3c
000003a0: 1800 063e f9d0 00be bd3d 26bd 50f0 933d
000003b0: cdd6 093e 9160 b6bd 7a9f 993d 11e9 473d
000003c0: c8ce 4abc 0e26 b6bd b2ba 9bbd b4ec eb3b
000003d0: 18b2 81bc 9e9b a83b 5428 0dbe 03b6 093d
000003e0: cf70 8bbd d896 05be 4db4 903d 510b 54bd
000003f0: 4c87 9a3d 7452 593d e6fa 283e 49fd 703d
0.27168256 0.12857793 0.22979014 0.030400967 0.2319536 0.088118754 0.18164217 0.16463014
0.14776129 0.02456332 0.20389098 0.014706085 -0.031648528 0.0207597 0.09727766 0.0041740513
0.005597308 0.004400461 0.0029661807 0.023280753 -0.03875608 -0.2496515 -0.10115132 -0.28468576
-0.23831417 -0.2689683 -0.33582717 -0.0008190917 0.061599694 0.01457449 0.061184585 -0.11337784
0.08700053 -0.03680267 -0.02838038 -0.09163998 0.220856 0.11734575 0.17526063 -0.014581048
0.25789496 0.04904514 -0.09697723 0.20326774 0.23296052 0.03680126 -0.030496633 -0.14355378
-0.15919706 -0.024319421 -0.0027674898 0.005030735 -0.09166265 -0.036833476 0.21656118 0.14775018
0.23266682 -0.050926145 0.14672133 0.0013784247 -0.0029421279 0.04388223 -0.01611699 -0.15365252
0.19919775 0.0020688286 -0.15653704 -0.018977894 0.1305433 0.047028072 0.10185476 0.113637395
-0.30837303 -0.14544408 -0.17961442 -0.21071538 -0.26549572 -0.23474017 -0.114755526 -0.25716376
-0.35862678 0.023621596 0.06710659 -0.06755051 0.009799165 -0.09075863 -0.18885003 -0.14350168
-0.19553018 -0.20307955 0.040540732 -0.011782457 -0.040630855 -0.050356865 0.11298683 -0.13168961
-0.113412425 0.12837894 -0.044887733 0.10911938 -0.08262499 -0.09435415 0.12163294 -0.11108544
-0.15331145 0.13312636 -0.007822936 -0.1911486 0.07071501 0.25667998 0.14565976 -0.13008326
0.04385359 0.1206894 -0.038336143 -0.12843922 0.1381835 -0.32592574 -0.20584495 -0.1272052
-0.18800019 -0.10106675 -0.20000184 -0.29365897 -0.2743375 -0.22658074 -0.059495766 0.08140265
0.16784328 -0.14884318 0.054342113 0.21716231 -0.18944246 0.10043843 0.05906658 -0.23189977
0.050659247 -0.11718022 -0.15618862 -0.046227362 -0.08896458 -0.16265091 -0.30374926 -0.051624108
-0.18697868 -0.30307338 -0.23712744 -0.45177233 -0.31422552 -0.25445515 -0.36663982 -0.22519149
-0.2946432 0.14890991 0.285018 0.34334728 0.20763443 0.24920672 0.16047652 0.1478432
-0.116710566 0.072917916 -0.107560694 0.08342577 -0.025540555 -0.021594614 0.04274952 -0.10620352
-0.07022838 -0.13649686 0.004906316 -0.043490574 -0.0021410016 -0.043190546 -0.030833457 -0.0661751
-0.078540705 0.029634362 0.0650767 -0.034327865 -0.059537925 0.20826352 0.19294253 0.14735383
0.1784977 -0.12684901 0.044987477 -0.07844395 0.036713175 0.024541734 0.14422357 0.13587046
0.022571877 0.065118775 0.043660052 0.06939123 -0.103253596 0.09109203 0.028090643 0.060816508
0.11798108 0.12694837 -0.09326335 -0.06587102 0.13212101 0.054709632 0.15159337 0.2277469
0.23596358 0.17012157 0.19613768 0.16907443 0.018864846 0.19225061 -0.109296404 0.07362769
-0.08609191 -0.4166067 -0.19225271 -0.3100467 -0.38627043 -0.1781259 -0.42098096 -0.38258126
-0.16106066 -0.10810734 0.17073216 0.21995537 -0.12721422 0.17664118 0.079935856 0.015490292
0.13085973 -0.12579717 -0.040586222 0.0722357 0.13460846 -0.08905137 0.07501121 0.048806254
-0.012378402 -0.08893977 -0.07603969 0.007199848 -0.015831992 0.005145504 -0.13784915 0.033620846
-0.06808626 -0.13045824 0.0706564 -0.051768605 0.07545337 0.05305715 0.1650196 0.0588353

bias f4 [4]
00000000: 7490 6e3d 689f 70bd 2878 9d3d 30ce 2c3d
0.05824323 -0.05874577 0.076889336 0.042188823

weight f4 [128, 324]
00000000: 0f2e 1ebc fef1 30bc c73c dabc a37c 0cbd
00000010: 9745 55bd 2a9f 0b3d 371c 5fbd e463 0d3a
00000020: 64ff 8cbc d7d4 273c b1a4 1cbd c8bd 85bd
00000030: 7188 8fbb 480b 143d b80b 6ebc 75ed c4bc
00000040: fb8e 71bd 9ed3 c93c ac0d 01bd 9c22 073c
00000050: 32b7 21bd 72c5 c53c bc2a cebc 7f5b 7dbd
00000060: 6ee5 0e3d 1ef0 62bd 1883 89bc 2563 b43a
00000070: de23 56bd 1f0e 283d ab7d ebbc f76f 963c
00000080: d67b 4dbd 097a 0dbd 420d ccbc 2992 913a
00000090: 710e 92bc 23a8 c83c d44f 5fbd bab9 e93c
000000a0: 6415 cebc f9f8 30bd 347c c53c 2f38 523c
000000b0: 4104 61bd 8c24 9bbb ce6c 50bd 6884 bdbc
000000c0: 27ef 34bd 1e0e 59bd 4e41 82bd d3a6 4bbd
000000d0: 25ae fd3c 5f53 103b 9855 563c 4ec2 4b3d
000000e0: 8e34 9abd 1e4c 5cbb d3ae 84bd 5020 01bd
000000f0: cc4d 64bc ddfc b8bc 9d48 71bd 6529 0ebd
00000100: 666b 8abc b05c 53bd 2100 54bd 2a39 5dbc
00000110: 09af 463c 8089 b2bb 0716 25bd abad 183a
00000120: 84a4 1bbd 78b9 70bd c8e3 3d3a feea 1dbd
00000130: a817 053d 4ed5 d43c cecf 203d 35ae d93c
00000140: e23a 433d 57f6 5abc 6a75 f63c ed5e 1dbd
00000150: b5dd 513d d797 09bd e816 2a3d c108 0e3d
00000160: 97ff 09bc 8ad2 113d 0680 debb dbc5 ac3c
00000170: c668 e3bc 4ee2 86ba 1cae d7ba 49ad c33c
00000180: 38fc 283c 521a 183d a726 a2bc 88ca 5ebd
00000190: 9cbc ad3c 76ef 1d3d e58c 8cbc 2fed 8ebc
000001a0: 5fa1 11bd 990b 45bd 197a 46bd bbd8 00bd
000001b0: aeae 183c 003b 1e3c a667 86bd c0a7 6abd
000001c0: ea2f 2fbc a2c2 893c eefb 2e3c 7661 a4bb
000001d0: af10 c5bb 4e27 123c f196 2c3d b35d 043d
000001e0: 4763 56bb 8ca4 333d a696 c4bc 54e0 01bd
000001f0: 3762 b83c 70fd daba 24c0 883c ed35 2c3d
00000200: dae3 d33a 3914 3a3d e582 063d 1892 05bd
00000210: 0e9d 05bd fb73 593d 9f57 d83c d1d5 dbbc
00000220: 7a93 c0bc 5086 04bd b7ae 183d 9f99 133d
00000230: 54d3 50bd 24cb cb3c c5e2 453c 55e1 1c3c
00000240: 793b 1ebd f0cb f33b 6b74 343d e410 a6bc
00000250: 5e40 29bc b807 f43c f38f 30ba fbb2 7fbc
00000260: 7127 bb3c dd63 bebc 3f4f 0fbd 8f5b d23c
00000270: e1f8 e0b9 52e1 40bb 459e 013d 7917 c3bc
00000280: 16cb 9a3c 56e9 41bd 60ce 9c3c cd0f 5ebd
00000290: 2584 bdbb 1167 293d eebd 293d f9ad d73c
000002a0: beba 0f3d 1768 c0bc 828f 4e3d d172 f0bb
000002b0: 2c62 5a3c 8741 02bd df30 1dbd 5220 88bc
000002c0: 492c 5abd 7597 413d 742b 8f3d 4e7a 3e3d
000002d0: d979 72bc 86f7 363d 0a2c cbbc 37fd 58bd
000002e0: dc0c 36bd 0e2c 973c 7e55 3d3b b946 853b
000002f0: da4d 443d 1a82 ab3c b093 2ebd db02 a13b
00000300: 29cd 6fbd b7db 83bd 258b 8a3d 4404 b83d
00000310: d461 22bd d40a 1bbd 222d 5b3c 43ed f43c
00000320: 7581 413c b270 09bc 48a6 58bd 3cda 7f3c
00000330: 4bb2 4e3d 0ed2 bbbc 4c8e 40bc 7bd0 50bd
00000340: 6a64 e73c 0438 263d 7993 2e3c dd21 d63c
00000350: 631a 58bd 7243 a23c 976f 42bd cc4a 893c
00000360: e3c2 1abd 6907 bfbb 603e 39bd 2698 793a
00000370: 76af 68bc 79f0 52bd be7d 34bd bcf3 143c
00000380: cefa 983c d421 35bc 0525 eb3c 647c c33c
00000390: d314 f23b 2bc2 ed3b 4fca 9bbc b61b 81bd
000003a0: bfaf 973c 94cd 14bd 82fe 72ba a974 89bd
000003b0: 1c74 36bd 1ffb 8bbd 5394 4ebd dccb c03b
000003c0: 7d17 70bd 11df 5a3d 184c 8bbc 8c9f 1e3d
000003d0: 99ee 7ebc c59e f5bc 4ee9 70bd 473c 22bc
000003e0: 9c25 6dbd 4c3b 3cb9 64b6 4b3c 774e c93b
000003f0: be31 cfbc fd5f 443c bd43 46bd 0fa7 3fbd
-0.009654536 -0.010799883 -0.026640309 -0.03429855 -0.05206832 0.034087338 -0.054470267 0.0005393608
-0.017211623 0.010243616 -0.038243 -0.065303385 -0.0043802788 0.03614357 -0.014529161 -0.02403901
-0.058974247 0.02463704 -0.03150718 0.008247998 -0.03948135 0.024142 -0.025166862 -0.061854836
0.03488677 -0.055404775 -0.016786143 0.0013762458 -0.0522803 0.041029092 -0.028746447 0.018363936
-0.050166927 -0.03454021 -0.024908666 0.0011106181 -0.017829152 0.024494236 -0.05451949 0.028530944
-0.025156684 -0.04320619 0.024107076 0.012830778 -0.054935697 -0.0047345813 -0.050885014 -0.023134425
-0.044173386 -0.05299198 -0.06360112 -0.049719643 0.030966828 0.002202235 0.013081931 0.04974585
-0.07529555 -0.0033614705 -0.064786576 -0.031524956 -0.013934564 -0.022581512 -0.05890714 -0.034707446
-0.016896915 -0.051602066 -0.051757935 -0.0135023985 0.012126693 -0.00544852 -0.04030421 0.00058242184
-0.03799869 -0.058770627 0.000724372 -0.038554184 0.032493263 0.025980618 0.039260678 0.026572326
0.047663577 -0.013364396 0.030085284 -0.038420606 0.051236827 -0.03359207 0.04152575 0.034676317
-0.008422754 0.035601176 -0.006790164 0.021090439 -0.02775992 -0.0010290833 -0.0016455087 0.02388634
0.01031404 0.037134476 -0.019793821 -0.054392368 0.0212081 0.038558446 -0.017157027 -0.017447082
-0.035554286 -0.048106764 -0.048456285 -0.03145669 0.009318991 0.009657621 -0.06562738 -0.057288885
-0.010692576 0.016816441 0.010680182 -0.005016501 -0.0060139517 0.008920504 0.042136136 0.03231592
-0.0032712983 0.043858096 -0.023997616 -0.031708077 0.02250777 -0.001670761 0.016693182 0.042043615
0.0016165928 0.045429442 0.032839675 -0.03261003 -0.032620482 0.053089123 0.026408968 -0.026835354
-0.023507822 -0.032354653 0.037275996 0.036035176 -0.05098279 0.024877138 0.012077992 0.009575208
-0.038630936 0.0074400827 0.044056337 -0.020271726 -0.010330288 0.029788837 -0.00067353173 -0.015606637
0.022845956 -0.023240978 -0.034987684 0.025678424 -0.0004291004 -0.0029431176 0.03164508 -0.023814904
0.018895667 -0.047341667 0.019141376 -0.054214288 -0.005783575 0.041358057 0.041440897 0.026328074
0.0350902 -0.023487134 0.05042983 -0.007337906 0.01332907 -0.031800773 -0.038376685 -0.016616974
-0.05326489 0.04726358 0.0699071 0.046503358 -0.014799559 0.04466965 -0.024801273 -0.05297586
-0.044445857 0.018453624 0.0028890069 0.0040672687 0.047925808 0.02093606 -0.042621315 0.0049136705
-0.058545265 -0.06438392 0.06764821 0.089851886 -0.039644077 -0.037852123 0.01337746 0.029898291
0.01181065 -0.008388685 -0.052892953 0.015615996 0.050463002 -0.02292731 -0.011752676 -0.050980072
0.028246123 0.040580764 0.010655277 0.026139194 -0.05275954 0.019807551 -0.0474697 0.016759299
-0.037783515 -0.005829741 -0.0452255 0.0009521268 -0.014201989 -0.051498864 -0.04406523 0.009091314
0.01867428 -0.011055429 0.028704176 0.023863025 0.0073877363 0.0072558126 -0.019017367 -0.063041136
0.01851642 -0.036328867 -0.0009269492 -0.06711704 -0.044544324 -0.06835007 -0.05043442 0.005883677
-0.05861615 0.05343539 -0.017004058 0.038726375 -0.015559816 -0.029982934 -0.058816247 -0.009902067
-0.057897195 -0.00017951167 0.012433622 0.006143387 -0.025292274 0.011985776 -0.048404444 -0.04679018

bias f4 [128]
00000000: 5a44 da3b 4da3 693d 3dea 3c3c c1f6 cabc
00000010: faa5 903d 6251 fcbb 3ee8 623c 079a a4bd
00000020: c64c 2f3c 79b0 a5bc 3f45 143d 3508 1d3d
00000030: 63ef 2d3c a570 f23c f5b4 903d 07af 8e3c
00000040: 870e 703d e6de 833d 76fd 4c3d 7ab1 2b3d
00000050: 95a0 813d c1b4 9bbd 99f7 9a3d 7d6e 7ebd
00000060: 68c9 db3b a689 933d 0d52 7e3d ac74 3abc
00000070: cb70 d4bd 27ab 8abc 97b2 183c 9249 8d3c
00000080: b008 033d ff87 853b 9a5d bc3d 94b8 eb3b
00000090: b8e2 be3c d98e 7b3d d040 a5bc dc24 3d3d
000000a0: 16ed 9e3d 0dfd 3e3d b8c1 8cbd b115 03bd
000000b0: 427d 593d 5349 8fbd 754b 83bd efa8 8c3d
000000c0: f257 563d 8b5e ab39 588d 85bd e5e4 edbc
000000d0: d449 88bd b44f 40bd 498f 653d e340 84bb
000000e0: 17ca 3abd 7918 b3bd b8c7 083a c96d 2b3d
000000f0: 8785 6bbd e23a cb3c 7d61 a83b 8a23 693b
00000100: 1b20 0a3d 2158 1abd 6c63 92b7 ee58 2f3d
00000110: abf2 753b 4b59 653d 3832 30bd f419 33bb
00000120: f188 1e3c 65fe f6bc 43c7 003e 2c06 2a3c
00000130: cfde e1bc 241f 4a3d 3256 a33d d6a7 7c3c
00000140: 0663 383d c8f5 b23d 2441 43bc eb13 c6bc
00000150: 46e6 4f3d b743 c7bd 4439 8c3c 1014 9a3d
00000160: a5d7 19bd 2b79 f2bc ec25 8d3d d856 243c
00000170: 62bc 873c 8dea b53d eacb 653c 539c 1fbd
00000180: abd0 8f3d f0e3 6a3b ca08 223d b5d0 973d
00000190: 1a51 1e3d 4b44 bcbc 518d b03d e995 883d
000001a0: 7d2d af3b 423b 3abd 9e8d b13c 0c48 413d
000001b0: 2abf 5b3c 3124 083d 934d 1c3d 9e54 043d
000001c0: 499f 283c ec50 1e3d 528c 313d 4893 6cbd
000001d0: 63e6 1e3c da0b 313b 9957 c93c f1f1 453d
000001e0: bb6c 45bb c50e 0e3d b014 223d cdba ff3b
000001f0: 700c aa3b 6031 55ba 14d4 58bc 32f6 713d
0.00666098 0.0570405 0.011530456 -0.024775865 0.070629075 -0.0077001313 0.013849316 -0.08037191
0.010699457 -0.02022575 0.03619885 0.038337905 0.010616156 0.029594729 0.07065765 0.017417444
0.058607604 0.06438999 0.050046407 0.0419173 0.06329457 -0.076028354 0.07566757 -0.06211709
0.006707359 0.07203989 0.06208997 -0.011380356 -0.10373076 -0.016927315 0.009319923 0.017246995
0.031990707 0.00407505 0.091975406 0.0071936343 0.023301467 0.061415527 -0.020172507 0.04617773
0.07760064 0.046628047 -0.068728864 -0.03200311 0.05309797 -0.06996407 -0.06410877 0.06868159
0.052329965 0.00032686102 -0.065211 -0.02903981 -0.066547066 -0.04695101 0.05604485 -0.0040360554
-0.045602884 -0.08744902 0.00052177487 0.041852746 -0.05750039 0.024808351 0.0051385746 0.0035574161
0.033722024 -0.037681703 -1.7450853e-05 0.04280942 0.0037528675 0.05599336 -0.043016642 -0.0027328702
0.009676204 -0.030150602 0.12576012 0.010377448 -0.027572064 0.049346104 0.07975425 0.015420875
0.04501631 0.08738285 -0.011917386 -0.02417942 0.050756715 -0.097297125 0.01711715 0.07523358
-0.03755917 -0.029598793 0.06891999 0.010030471 0.01656932 0.08882628 0.014025668 -0.03896744
0.07022222 0.0035841428 0.039559163 0.074128546 0.038651563 -0.022981783 0.08620704 0.06669218
0.005345999 -0.04546667 0.021673974 0.04718785 0.013412276 0.03323764 0.038159918 0.03230726
0.010291883 0.038651392 0.04334671 -0.057757646 0.009698483 0.002701512 0.024577903 0.048326436
-0.0030124623 0.034682054 0.03957051 0.007804251 0.005189471 -0.00081326626 -0.013234157 0.05907268

weight f4 [1, 128]
00000000: 53c1 f9bb 6f31 64be 2cd4 8abe bc28 a93b
00000010: 364e 5c3e 42b4 3b3e 3be7 6b3e f046 88bd
00000020: 7a63 7e3e 6afe cebc 8ebd bcbe bd58 84be
00000030: beaa 5a3e 5b3f 7a3e aeea 83be 7786 773e
00000040: 014b 693e 4edf 563e af65 4f3e 85fe 963d
00000050: b5ae aebe a567 013f 5fe5 bebe ba72 6b3d
00000060: 0b5a 5abe c8a9 4d3e 4167 533e 1fd7 05bf
00000070: 04f6 933e c427 c23e 61f0 723e a038 263e
00000080: 258c b0be b1d1 d7be e09f 70be 956a 873e
00000090: a447 8bbe 9bb1 78be bdae eabe 65b1 003e
000000a0: 1a25 82be 2126 26bf 2440 86be 9946 96be
000000b0: 0acd 623e bb61 d53b 2e01 453d e31f 603e
000000c0: 00c8 733e a863 a6be 33d8 4d3d 04c4 f33e
000000d0: 3741 4f3d 0d7e d5ba 2689 5a3e dcf1 353d
000000e0: def9 8bbd 514c cdbc 94ce 3b3e b569 44be
000000f0: 5b16 963e 0351 be3e 60c5 ecbe 7680 14be
00000100: 6394 983e 854b 50bb fc54 3abb 5b85 0c3f
00000110: e8d1 843e fd6e a8be 539d 803d d743 b6be
00000120: 5014 89be be9a 59bd 12c1 23be 955c 30be
00000130: 61ea a43e 31ff 663d e979 28be 93b1 543e
00000140: 6395 c9be 2d60 47be e450 afbe c9b5 083e
00000150: 853e 723e 55f1 883e e4f0 a2be 70f4 a0be
00000160: b431 7e3d 1501 303d 0e5c 38be d1ba e3be
00000170: 9401 3ebe 8c6a 3bbe e65e 80be 28a7 1c3e
00000180: 0b5a 4a3e 36bb aabe 504f 553e 1065 6c3e
00000190: b97c 393e 5970 09ba 1d37 abbe 3b82 7e3e
000001a0: 6407 8e3e 15aa 6e3e 8cd4 753e 11e5 5d3e
000001b0: df8d 693e 0874 80be fe44 8fbe ce1a 913e
000001c0: d107 6abe c016 8fbe cd9b 65be 08ef 973e
000001d0: 3598 93be 5f78 58bc 7e85 aebe e188 8dbe
000001e0: 6233 7c3e b02e 6f3e f3e8 c2be 9405 613e
000001f0: fc56 903e cc1e 913e 4f8a 60be be4a bbbe
-0.007621923 -0.22284482 -0.27115 0.0051623266 0.2151421 0.18330482 0.23037426 -0.06654155
0.24842635 -0.025267798 -0.3686337 -0.25848952 0.21354195 0.2443823 -0.25764984 0.24172388
0.22782518 0.20983621 0.20253633 0.073727645 -0.34117666 0.50548774 -0.3728437 0.05748246
-0.21323411 0.20084298 0.20644857 -0.52281374 0.28898633 0.37920964 0.2372451 0.16232538
-0.34481922 -0.4215217 -0.23498487 0.26448503 -0.27203095 -0.24286501 -0.4583644 0.1256767
-0.2541893 -0.6490193 -0.2622081 -0.29350737 0.22148529 0.0065118945 0.04809683 0.21887164
0.23806763 -0.32497907 0.05025501 0.47610486 0.050599303 -0.0016288176 0.2134138 0.04442011
-0.06834768 -0.025060805 0.18340522 -0.19180949 0.2931393 0.37171182 -0.46244335 -0.14502129
0.2980071 -0.0031783294 -0.0028432002 0.54890984 0.25941396 -0.32897177 0.06280007 -0.35598633
-0.2677331 -0.05312609 -0.15991619 -0.17222817 0.32210067 0.056395713 -0.16452755 0.20770864
-0.39371786 -0.19470282 -0.34241402 0.13350596 0.23656662 0.26746622 -0.3182441 -0.3143649
0.06205912 0.042969782 -0.18003866 -0.44478467 -0.1855529 -0.18302363 -0.25072402 0.1529814
0.19760911 -0.33345956 0.20831037 0.23085427 0.18113984 -0.00052428764 -0.33440486 0.24854366
0.27740014 0.23307069 0.24006861 0.21669413 0.22808026 -0.25088525 -0.27982324 0.28340763
-0.22854544 -0.27947044 -0.22422715 0.29674554 -0.28827062 -0.013212292 -0.3408622 -0.27643493
0.24628976 0.23357654 -0.3806835 0.21974784 0.28191364 0.2834381 -0.2192776 -0.3658046
