Lecture-8-2/models/bitmoji_cnn_augmented.pt (torch, 177064 bytes, 7 tensors)

weight f4 [8, 3, 5, 5]
000000 ae 4a 97 3d e8 c8 51 bd fb 9a a1 bd f0 24 27 be
       0.07387291 -0.05121699 -0.07890888 -0.16322684
000010 9f de e8 bd 59 79 13 3e f2 62 79 bc 47 18 c9 3d
       -0.113705866 0.14401759 -0.015221344 0.09819084
000020 90 3f ff bc 02 27 9d bd 67 7f 09 bd 02 ca 0a 3e
       -0.031158239 -0.07673456 -0.033568766 0.13553622
000030 c8 a9 39 3c 2c ef 94 bc 00 77 13 be 86 c1 8a 3d
       0.011331983 -0.018180452 -0.14400864 0.06775193
000040 24 da 1b 3d 57 a8 cc bd e7 6e 5a bc 03 f1 ed bd
       0.038049832 -0.09993046 -0.013332105 -0.11618235
000050 7a 43 69 3d 34 56 34 3d 30 04 73 bd 69 61 9f 3d
       0.056949116 0.044027522 -0.059330165 0.077822514
000060 c9 5f 57 3d de f9 c7 3d 19 a1 fd 3d 2f ac dc bd
       0.052581582 0.09764455 0.123842426 -0.10775029
000070 52 37 f6 bd a2 03 89 bd 9b 0e 66 bb 32 e1 ac 3d
       -0.1202227 -0.06690146 -0.003510392 0.0844139
000080 61 9b d9 3d b4 58 7e 3d b3 d6 37 bc 9c ce a6 3d
       0.10625339 0.062096313 -0.011220622 0.08144876
000090 ec ce 01 3e cb 8d 8a 3d 5a ec 3c 3d 80 5f 39 be
       0.1267659 0.06765326 0.04612384 -0.18102837
0000a0 d7 6c dc bc 86 b3 95 3d c6 41 41 bd 3c 19 ad 3b
       -0.026907368 0.07309632 -0.047181867 0.005282549
0000b0 41 2f d0 bd 15 eb 36 3e 40 32 08 bd a8 db 84 bd
       -0.10165263 0.17863114 -0.033251047 -0.064872086
0000c0 c1 98 e1 ba 66 9f 00 be f5 ea 48 3d f0 51 4d 3d
       -0.0017211662 -0.12560806 0.049052197 0.05012697
0000d0 da b8 16 be 20 74 25 be 00 0a 76 be bf 8c 24 3d
       -0.14718953 -0.1615758 -0.24027252 0.04017329
0000e0 ee b8 43 3d d8 e9 11 3d 55 7c ec bd b8 43 19 be
       0.047783785 0.0356234 -0.11547152 -0.14967239
0000f0 58 48 94 3d 23 ae af bd 5d 70 16 3d 30 c1 23 3d
       0.07240361 -0.08578136 0.03672825 0.03997916
000100 93 33 41 bd b9 e3 fa 3d 54 ad 0b be 11 1d 83 bd
       -0.047168326 0.12250466 -0.13640338 -0.06402028
000110 6a 17 00 be de f8 09 be 08 74 d7 3d fc 0e a2 3d
       -0.12508932 -0.13473842 0.10520178 0.07913014
000120 96 3d 32 3d 0b 72 4a 3c ad 49 d6 bd c7 5e e4 3d
       0.043515764 0.0123562915 -0.10463271 0.1115089
000130 80 51 a0 3c 40 96 b5 3d ee 8f 4e 3d 1e a1 1a be
       0.019570112 0.088665485 0.05043023 -0.15100524
000140 68 10 a0 3d bc 99 92 bc e1 40 81 bd bc 62 2e be
       0.07815629 -0.017895572 -0.06311203 -0.17029852
000150 a4 56 19 be e9 31 1f bd 42 ce 1c 3d a6 fb 66 3d
       -0.14974457 -0.038865957 0.03828264 0.056392334
000160 65 ab de 3d 7e fa 9f 3d 5f af 4e 3d e2 e2 08 3e
       0.10872535 0.078114495 0.050460216 0.13367799
000170 0d 9b 4c 3d b5 2a bb bc c7 b0 00 3e 13 be ec 3c
       0.049952555 -0.022847513 0.12567435 0.028899228
000180 91 42 8a 3d 24 01 86 bc c0 e0 d8 3a 8b fc b7 3d
       0.06750978 -0.016357966 0.0016546473 0.089837156
000190 cf 3e cc 3d d9 27 5d bd c3 97 2d bd d3 db d1 bd
       0.09972917 -0.05399308 -0.04238106 -0.10247006
0001a0 48 9d 9b 3c 83 0a 57 3d 25 7e 71 3c 7e fb 1c be
       0.018995896 0.05250026 0.014739548 -0.15330312
0001b0 21 60 cf bd 35 01 53 be 72 15 9a 3c 5e 66 ae 3d
       -0.10125757 -0.20605929 0.018809054 0.08515619
0001c0 f5 66 c5 3c 3a 1e fb bd e5 10 dd bd ac e8 7f 3c
       0.024096945 -0.12261625 -0.10794238 0.015619438
0001d0 42 fb 3c 3d 9a c4 d8 3a 90 2e 10 3d 37 d6 8a 3d
       0.046138056 0.0016538084 0.035200655 0.067791395
0001e0 8f fe ba 3d d4 2e bb bb d4 a9 17 3d de 9f 91 3d
       0.091305844 -0.0057123695 0.037027195 0.0711057
0001f0 88 3b 9b bc cb b4 5b 3d 5e 8a 83 bd 41 6b 28 be
       -0.018949285 0.053639214 -0.06422876 -0.16447164
000200 38 12 af bd 1d 01 31 be b9 40 4a bd 69 b2 7c bd
       -0.08548397 -0.17285581 -0.04937813 -0.061693583
000210 04 16 0d be c8 44 2f be a6 d3 90 be cd 0b e8 3d
       -0.1377793 -0.17116082 -0.28286475 0.11330376
000220 5d 56 b0 bd 22 af 44 3d 41 6f 17 be 19 f1 64 be
       -0.086102225 0.048018582 -0.14788534 -0.22357596
000230 ce 0f 6e bd 6f 9f e2 3d cd f5 d0 bc f9 cc 92 3d
       -0.05812054 0.11065566 -0.025507832 0.07168002
000240 b0 67 cb bd b3 67 35 3c 24 c4 89 3d 50 5b f3 3c
       -0.09931886 0.011072087 0.06726864 0.029706627
000250 c7 f9 2c 3d af 20 6b 3c 7d c1 c1 3d f7 d2 87 bd
       0.042230394 0.014351054 0.09460733 -0.06632035
000260 18 3f c4 3d 13 73 19 3e b8 0f 38 3e 6f 9c fa 3c
       0.09582347 0.14985304 0.17974746 0.030592171
000270 8c ed c4 bc cc 6a 3c bd d7 f8 20 3e 4a 37 b4 3c
       -0.024039052 -0.046000287 0.15719925 0.02199902
000280 92 56 03 3e 17 c9 1e bb bc 02 3c bd 47 f7 06 3d
       0.12825993 -0.0024228746 -0.045901045 0.032950666
000290 3e 4c 25 3d 14 7e 93 bd 27 85 34 bd 43 64 fc 3d
       0.040355913 -0.07201782 -0.044072296 0.12323811
0002a0 91 d5 f6 bc 4a 11 bf 3c b1 60 fb 3d 4d a4 8e bd
       -0.030131133 0.023323674 0.12274302 -0.06964932
0002b0 c5 87 1e 3e c1 6d 93 3a db 92 a0 bc 4b ff c2 bd
       0.1548148 0.0011247919 -0.019601276 -0.095213495
0002c0 5b 8d 10 be 26 01 26 bd 5f 9f b7 3d 13 da 2b bc
       -0.14116423 -0.04052844 0.089659445 -0.010489005
0002d0 43 fc dd 3c 79 fa a4 bd 85 95 92 ba f8 26 bb 3d
       0.027097827 -0.08055586 -0.0011183476 0.09138292
0002e0 c5 64 44 bd 2a c3 ac bc 8f 40 cb bd 18 f7 1c be
       -0.047947664 -0.021089155 -0.09924423 -0.15328634
0002f0 fb ad 46 3d 71 c8 7d bd b6 df ea bd ed 6d 4d 3d
       0.048505764 -0.061958734 -0.11468451 0.05015366
000300 e7 ef 07 be cd 31 0f 3d 0f a5 7a 3c 72 45 e7 3d
       -0.13275109 0.034959603 0.015298142 0.112925425
000310 ae 2c eb bc 25 d2 82 3d 14 f9 93 3d 61 fc 87 3d
       -0.028707828 0.06387738 0.07225242 0.06639934
000320 24 55 b6 3c 24 a6 03 be d9 98 15 be bc 1e 94 bc
       0.022257395 -0.12856346 -0.14609088 -0.018081062
000330 6d ce aa bd 1c f3 65 be ed 3f 32 be 32 ff 44 be
       -0.08340154 -0.2245602 -0.17407198 -0.19237974
000340 d5 2c 61 ba 25 e7 3e 3d d3 fa f9 bd 7d a3 13 be
       -0.00085897493 0.046607155 -0.12206044 -0.14417835
000350 47 8f 23 be f0 39 f6 3c 48 1a ee bd 6c 81 d5 bd
       -0.15972625 0.030056924 -0.116261065 -0.10425076
000360 72 36 05 be 55 2c a7 bc 0d 40 bc bd 89 b3 d9 bb
       -0.1300905 -0.020406881 -0.09191904 -0.0066437167
000370 64 04 fa bd b9 cb a9 3c 15 dc 8a bd 25 64 ad 3d
       -0.12207869 0.020727025 -0.067802586 0.08466367
000380 59 55 b5 3d 9f bb ca 3d f1 62 1d 3d ee de 66 3d
       0.088541694 0.09899067 0.038424436 0.056364946
000390 25 c5 b2 3d 3e 01 bd bd ad 21 9c 3d e7 8c ae 3d
       0.087290086 -0.092287526 0.07623611 0.08522969
0003a0 e4 97 10 3e c9 6b dc 3d b1 59 08 3e 96 39 ae 3d
       0.14120442 0.10762746 0.13315465 0.085070774
0003b0 b0 4a cd bc ae b1 8c bc c2 27 f3 3d fb 10 56 3c
       -0.025060028 -0.017174568 0.118728176 0.013065572
0003c0 fd 53 66 3d 51 44 f2 3d f6 cd fb bc e8 e0 fc 3c
       0.05623244 0.118294366 -0.030737858 0.030868962
0003d0 d7 7d 5f 3d 0c 41 6e 3d 8f 36 01 3e f3 24 01 bd
       0.05456337 0.058167502 0.12618469 -0.03152938
0003e0 05 3e 53 3d 76 a5 5c bd de 18 1a 3c ac a1 0e 3d
       0.05157282 -0.053868733 0.009405343 0.03482215
0003f0 7e 35 2c 3d c9 30 c2 bd c4 35 a5 3c 3b 9e be bd
       0.0420432 -0.09481961 0.020167239 -0.09307524

bias f4 [8]
000000 62 ea db 3c 78 29 b8 3d 4c 76 8f 3e 75 c9 82 3e
       0.02684516 0.089922845 0.2801994 0.25544325
000010 d9 f5 29 3d 8d 4e 89 3e 77 fa f5 3d 13 9b 26 bd
       0.041494224 0.26817742 0.12010663 -0.040675234

weight f4 [4, 8, 3, 3]
000000 ab a9 02 be d8 72 c8 bd 2f 06 89 3d bd 9e b8 bd
       -0.12760036 -0.0978753 0.066906326 -0.09014652
000010 ee 56 ef bb da 30 a1 bd c1 3d 8d bd 52 01 d8 3c
       -0.007304064 -0.07870646 -0.06896544 0.026367817
000020 86 76 e3 bd 0a 32 07 bd 26 5a 8b 3d a7 c4 93 3d
       -0.11106591 -0.033006705 0.06804304 0.07215243
000030 e9 d7 c4 3c 14 43 64 bd 73 f5 2b bd b8 cd 2f 3b
       0.024028735 -0.055728033 -0.041982125 0.0026825499
000040 3f c9 73 3d ef e0 12 3d ed 8f 9b bd 0f 24 cb 3d
       0.059518095 0.035859045 -0.07595811 0.09918987
000050 e8 3f 91 bd f3 30 09 bd 7a e8 53 bc 17 9d c6 3d
       -0.07092267 -0.033493947 -0.012933845 0.09697931
000060 81 48 69 bd 6d 29 35 3d eb 69 46 3d e0 2c 98 bb
       -0.05695391 0.04422896 0.048440855 -0.0046440214
000070 16 9c e6 bd 63 8f a8 3d 14 75 bd b9 2b ee 54 bd
       -0.1126024 0.08230474 -0.0003613612 -0.051984947
000080 d4 3c bb bd a6 46 6b 3d 42 a1 c3 3c 89 1b b3 3d
       -0.091424614 0.057440422 0.023880605 0.08745486
000090 5a f5 ae 3d b7 af c4 3b de f8 5d 3d 4a b3 ae 3c
       0.08542891 0.006002392 0.054192416 0.021325726
0000a0 34 d4 c0 bc 15 52 de 3b 9c 35 4a bd 26 cc 9e bc
       -0.023538686 0.0067846873 -0.049367532 -0.019384455
0000b0 9b 29 82 3d c4 96 98 3d 6e 89 c2 bd 6c 71 e3 bc
       0.06355592 0.07450631 -0.09498869 -0.027764045
0000c0 44 b8 4a 3d 40 8b 55 3d a2 7b fc bd ac 3d 11 3c
       0.049492136 0.052134752 -0.123282686 0.008864801
0000d0 0e bd ae 3c 5f 77 8f bd 50 98 62 bd 43 92 ff 3b
       0.021330383 -0.0700519 -0.055321038 0.007799418
0000e0 08 da 8b 3d d1 f0 f2 bd 63 21 9a bd 44 d4 a0 3d
       0.068286955 -0.11862338 -0.07525899 0.078529865
0000f0 46 90 f4 3c 25 34 b6 bb bb 50 d2 bd 6a d8 b9 3c
       0.029853951 -0.0055604153 -0.10269304 0.022686202
000100 78 01 fb bd 1f ba d7 bd 91 b6 8f bd 15 ff b0 bd
       -0.122561395 -0.10533547 -0.07017244 -0.08642403
000110 7f 5e d6 bd 30 a3 f2 3c 40 b9 75 bd b3 45 f5 bd
       -0.104672424 0.02961883 -0.05999112 -0.11976185
000120 d3 43 10 3e fa c4 68 be 2c 34 0c be 00 d5 d9 3d
       0.14088373 -0.2273139 -0.13691777 0.1063633
000130 20 18 09 3e ec 5e ce bc 29 2b dc bd 16 e5 01 bc
       0.13388109 -0.025191747 -0.1075042 -0.0079281535
000140 ad c3 d9 bd 34 0f 10 3d 5b 00 cb be 5a a0 9e be
       -0.10633025 0.03517075 -0.3964871 -0.30981714
000150 b5 f6 48 bd 65 a3 e2 3a 5a b9 88 be ca cf 39 be
       -0.049063403 0.0017291127 -0.26703912 -0.18145671
000160 d9 9c 1b be 2a b7 49 be 73 bb b2 bd 37 ac 27 be
       -0.15196551 -0.19698778 -0.08727159 -0.16374288
000170 da 46 a4 be 45 b7 36 bd 6e 90 4f be 6b 96 70 be
       -0.32085305 -0.044608373 -0.2026994 -0.2349488
000180 3e 77 ed 3c 8c c9 4e 3c 73 29 cd bd af a6 f6 bd
       0.028987523 0.012621295 -0.100176714 -0.12043511
000190 6e b9 3a be 4b 92 bd be 70 d9 08 3e eb ce 6d 3c
       -0.18234798 -0.37025675 0.13364196 0.014514665
0001a0 78 ce af 3c 41 be 2b 3c 91 7c fb 3d 5e 87 f2 3d
       0.021460757 0.010482372 0.122796185 0.118422255
0001b0 9f a3 7d 3d b0 34 cd bc d8 53 a4 bc 44 81 32 bd
       0.06192362 -0.025049537 -0.020059511 -0.04358031
0001c0 43 1f 0f bd 73 3d 07 3e 78 1a 7c be d9 fb a1 bd
       -0.034941923 0.13207035 -0.24619472 -0.07909364
0001d0 f3 b6 3a be f3 3e e4 bb 52 5d 30 be 01 df c6 be
       -0.18233852 -0.006965512 -0.17223099 -0.38842013
0001e0 58 34 4e bb dd d8 b5 bc f9 ac 9d be f4 53 15 be
       -0.0031464305 -0.022198135 -0.3079603 -0.14582807
0001f0 28 88 ef bd fd af 30 be 77 a3 03 3e c3 00 1a 3e
       -0.116958916 -0.17254634 0.12855326 0.15039353
000200 c7 14 18 3e ff ee 2e 3e 48 4e 28 3e 7d b6 d4 3c
       0.14851676 0.17083357 0.16436112 0.025965923
000210 0f cc 2d 3e 3c 6b 4d 3d 98 78 91 3d c1 f7 ee 3d
       0.16972373 0.050151095 0.071030796 0.11668349
000220 f0 51 dc bc fb f8 59 bd d4 70 b0 3c 1c 15 6c 3c
       -0.02689454 -0.053215962 0.021538176 0.01440933
000230 de c1 98 bb 5d b3 be bd ba c3 ef bb ef 76 ab 3c
       -0.0046617826 -0.093115546 -0.0073170336 0.020930735
000240 9c cf 2e bd 74 85 02 3e dc 7c 70 be d2 d8 e8 3c
       -0.04267846 0.12746221 -0.2348513 0.0284237
000250 6b fa 98 bd c6 61 51 be 78 75 b6 3d bd d7 99 bd
       -0.074696384 -0.20447454 0.08909124 -0.07511852
000260 4b 84 8c be 5d 13 e9 bd d4 96 0b be 73 19 31 be
       -0.27444682 -0.113806464 -0.13631755 -0.17294864
000270 01 75 a3 3c 9c 62 38 3d fe ff c4 ba b0 02 3f 3e
       0.019953253 0.045015916 -0.0015029905 0.18653369
000280 50 eb 4c 3d 32 c4 73 3d 0d 08 13 bf d6 45 7b be
       0.0500291 0.05951328 -0.5743416 -0.24538359
000290 0c 4f 8c be 1f 8c 34 be e6 71 ff bd 98 b5 04 be
       -0.27404058 -0.17631577 -0.12472896 -0.12959898
0002a0 88 55 27 be aa 61 3e be cb bc 03 bd 02 99 88 be
       -0.16341221 -0.18591943 -0.03216247 -0.26679236
0002b0 07 91 fb be 3b 9e c8 be b4 00 cd bd 92 c0 0e be
       -0.49134085 -0.3918322 -0.100099 -0.13940647
0002c0 31 88 09 bf 4d 7b 64 3d 43 57 0e be 5e 4a 9c be
       -0.53723437 0.05578165 -0.13900475 -0.30525488
0002d0 26 c8 35 3c 85 e2 7a 3e 4b 3a 65 bd d1 59 9a 3c
       0.011095082 0.24500473 -0.055963796 0.018841656
0002e0 e1 c9 63 be cb c8 78 bc 60 d1 37 3e e3 8f e9 3d
       -0.2224498 -0.0151845915 0.17950964 0.11404397
0002f0 45 2a ee bd cb 96 ae be 1b 84 3b bf 0c f1 31 bf
       -0.11629156 -0.3409942 -0.7324845 -0.69508433
000300 01 ff 8e bd f0 2d 14 bf 0c a7 19 bf 87 74 1d bd
       -0.06982232 -0.57882595 -0.6002052 -0.038441207
000310 ae 16 44 bd af 2d bd be f5 f3 ef bd f0 bc 17 be
       -0.04787319 -0.36948916 -0.11716453 -0.14818168
000320 61 3d 0e be c8 e3 cb bd 2a 58 c0 bd 3c 27 cf bd
       -0.13890602 -0.09955555 -0.09391816 -0.10114905
000330 6a c6 98 3c 00 8f c4 3c 7e b0 71 3c 2f 28 ac bc
       0.018649299 0.023993969 0.014751552 -0.021015255
000340 49 2f 10 be e1 aa a8 bd a4 f2 55 3d c2 94 9a bd
       -0.14080538 -0.082357176 0.052233353 -0.075479046
000350 d8 02 12 bb 82 a8 02 3e b1 a0 53 3d 40 a7 05 bd
       -0.0022279527 0.12759593 0.05166692 -0.032630205
000360 89 85 8b bd aa 82 8d bd aa 9d 62 be c7 97 85 3d
       -0.06812579 -0.06909688 -0.22130457 0.0652309
000370 5a d4 d4 bd 91 fa 88 be be e1 28 3c d7 a1 eb bc
       -0.10392065 -0.26753667 0.010307727 -0.028763695
000380 35 41 92 be 72 14 6b be 66 dd de be cc 09 a3 be
       -0.28565374 -0.22957018 -0.4352829 -0.31843412
000390 67 44 58 3c d9 4b 8b be ad f1 01 bf c3 d6 a2 bd
       0.013199902 -0.27206305 -0.5075939 -0.07951119
0003a0 8b aa 4b be 95 a8 57 be 8d 4b 9b be c2 9c a1 be
       -0.19889276 -0.21060403 -0.30331078 -0.3156491
0003b0 26 16 5b be 2a a0 a6 be a4 52 99 be 2d bf d9 be
       -0.21395168 -0.3254407 -0.29945862 -0.42528668
0003c0 a8 18 cd be c1 9e 9c be 3f 65 e7 be c8 64 91 be
       -0.40057874 -0.3058987 -0.45194432 -0.28397202
0003d0 38 3e 20 be 83 8e 77 be 1a e7 b1 be 60 c1 85 be
       -0.15648735 -0.24175458 -0.3474663 -0.26124096
0003e0 25 a1 8e be ed 2a 33 be e5 2b ac be bb e6 77 be
       -0.2785732 -0.17496844 -0.3362724 -0.2420911
0003f0 97 f6 fc 3d 1f 24 36 be 34 74 b0 bd c5 0c b2 bb
       0.12351721 -0.17787217 -0.08615914 -0.005433651

bias f4 [4]
000000 dd 30 03 be 95 26 db bd 32 80 d0 3d e5 0d f0 3d
       -0.12811609 -0.10700718 0.10180701 0.117214

weight f4 [128, 324]
000000 0b c0 31 3d 17 73 09 bd c4 ea b6 3c f9 71 46 3d
       0.043396037 -0.033557024 0.022328742 0.048448537
000010 dd 07 2c bd 44 ff d4 bc bd 71 87 3c 64 fd bf 3c
       -0.041999687 -0.026000626 0.016533727 0.023436256
000020 04 95 57 3d c4 d1 00 3d 00 ef 8c 3b b5 58 98 bc
       0.052632347 0.031450048 0.004300952 -0.018596986
000030 ce aa 0b bc 95 a8 a5 3c 6e f4 03 bd a2 83 4b 3d
       -0.00852461 0.020221988 -0.03221553 0.04968608
000040 9d a9 17 3d 8d 5c 3a bd f9 07 18 3c 1d c5 3b bd
       0.03702699 -0.04549842 0.009279245 -0.04584228
000050 c7 a3 bc bc 39 ba 4a 3d c7 a4 61 3b e4 a4 46 bb
       -0.023027314 0.049494002 0.003443049 -0.0030310685
000060 32 9b 60 3c 80 10 18 3c 0b 82 fa bc 64 9e 53 bd
       0.013708876 0.009281278 -0.030579587 -0.051664725
000070 d9 52 b5 bc eb 37 39 bd c7 f9 3f 3b 3e e5 a0 3c
       -0.022134231 -0.045219343 0.0029293166 0.019640561
000080 8a 67 2b bd 95 32 7e bc e4 e0 28 3a cb 09 c9 3c
       -0.04184679 -0.015514989 0.0006442203 0.024540802
000090 fd 3b 61 3d 87 f4 a0 3c fd 9b c4 3c d4 63 32 bd
       0.05498885 0.01964785 0.024000162 -0.043552235
0000a0 15 33 4b 3c e7 37 be 3c a5 81 4a 3d 55 1c 47 3d
       0.012402316 0.023220016 0.049440045 0.048611004
0000b0 f5 77 cb 3c 1d 7d 37 3c 47 e8 4f 3c f0 9a 9b 3c
       0.024837473 0.011199263 0.012689657 0.018994778
0000c0 60 6d b5 3c ee aa b8 3c c7 59 68 bc 27 8e e3 bc
       0.02214688 0.022542443 -0.014181561 -0.027777744
0000d0 d5 63 fb 3c dd f7 e4 3c 55 6f 9c bb a2 29 16 3d
       0.030687252 0.027950222 -0.004774014 0.036660798
0000e0 c4 46 c2 bc b5 db bc bc 0b 8c 44 3d e7 88 f2 3c
       -0.023715384 -0.023053983 0.047985118 0.029606296
0000f0 70 fe 1c 3d 5d 2c 0e bd 32 d2 15 3d ee 53 12 bd
       0.038328588 -0.034710277 0.03657741 -0.035724573
000100 c7 ba dc bb 5d bf b1 3c 84 f1 40 bd 6e 3c 03 3d
       -0.006736133 0.021697694 -0.047105327 0.032040052
000110 72 ac 86 3a a2 c1 1f 3d b9 24 8a bc 39 41 32 bc
       0.0010274781 0.039003022 -0.016863214 -0.010879808
000120 24 23 11 bc de 40 d2 3c f2 14 86 bc 4b 07 f2 bc
       -0.008858476 0.025665697 -0.01636741 -0.029544493
000130 55 e2 9c bb 5d f6 5d 3c 55 8c b1 3c 80 9a 1f bc
       -0.004787723 0.013547507 0.02167336 -0.0097414255
000140 5e 02 19 3d 6a 7d c1 bb 2c b1 60 bc c0 03 0a 3d
       0.037355773 -0.005904843 -0.013714116 0.033694983
000150 40 c2 f4 3b 1e d4 e2 bc 9f 60 88 3c a0 68 f5 3d
       0.0074694455 -0.027689036 0.016647635 0.11982846
000160 37 f8 ad 3d 8b 9d b6 bc 2a d8 60 3c 39 67 e9 3d
       0.08494609 -0.02229192 0.0137234125 0.11396641
000170 ea 43 9c 3d 8b a5 a0 3c 10 cb b4 bc 89 97 08 3d
       0.07630141 0.019610187 -0.022069484 0.03334764
000180 b2 69 98 bc 51 f8 10 3e 07 5e 03 3e e4 90 06 3d
       -0.018605087 0.14157225 0.12828837 0.032853022
000190 b9 2f 0b 3d 54 5c dd 3c 8a a9 17 bd 6f 1b ee bc
       0.03398106 0.027021565 -0.03702692 -0.029065816
0001a0 44 b3 96 3c 31 67 98 bd e1 82 61 3d 5c db a7 3b
       0.018396027 -0.07441557 0.055056456 0.005122585
0001b0 3e d1 db 3d 4f b9 59 3d 5a f9 f9 ba ef 6b 0d 3d
       0.10733269 0.05315524 -0.0019071505 0.03452676
0001c0 3d 7a ea bd 8d e0 33 be f3 e4 25 be 7e 69 4a 3d
       -0.11449096 -0.17566128 -0.16200618 0.04941701
0001d0 39 7d 77 3d d9 71 14 3d 0d d3 73 bd e3 f2 8d bd
       0.060422156 0.036241386 -0.059527446 -0.069310926
0001e0 dc a8 02 be d0 d6 15 be e5 50 23 be cc fb 19 be
       -0.12759727 -0.14632726 -0.15948828 -0.15037459
0001f0 e8 f7 2b bd 6d 23 17 bd fc 04 e5 3c f0 66 a0 b7
       -0.04198447 -0.03689902 0.027956478 -1.912142e-05
000200 72 7d b8 3c ca d9 1a bd f7 89 2d be 84 4e 28 be
       0.022520754 -0.037805356 -0.1694716 -0.16436201
000210 9a fd 32 be 74 b9 2d be 86 b1 21 bd 6c 45 82 3b
       -0.17479554 -0.16965276 -0.03947594 0.003975561
000220 07 42 3c bd 37 4e 02 3d e1 74 fd 3d 3a cf 97 bd
       -0.045961406 0.031812873 0.123758085 -0.07412572
000230 7f bf 6e bd 71 f8 12 be 4c 5b 92 bd 3a 1d fd bd
       -0.058288094 -0.14352585 -0.0714632 -0.1235909
000240 3d 96 f8 bc fe 18 92 3c 3c e3 79 3c c1 e1 a3 bd
       -0.030345077 0.017834183 0.015251931 -0.080020435
000250 a2 3d 30 bd d6 4b 62 bd 1c ec 55 bc 90 25 38 bd
       -0.043027528 -0.055248104 -0.013056781 -0.044957697
000260 0a 67 2d 3d 34 7c 4d bd ea 4c d9 bd 69 75 c7 bd
       0.042334594 -0.050167277 -0.10610373 -0.09739191
000270 f9 95 b6 bd 38 c4 4f be 04 62 c6 bc 6c b8 56 3d
       -0.08915324 -0.20289695 -0.02421666 0.052421972
000280 bc a0 31 bd 10 a2 06 bd 92 20 08 bd 76 b6 2d bc
       -0.04336618 -0.0328694 -0.033234186 -0.010602584
000290 2a 0c a8 3a 91 7f dc 3d c6 0e 1f bd f9 75 5e bc
       0.0012821008 0.10766519 -0.03883245 -0.013577932
0002a0 47 16 7b 3d fc 11 6e 3e cb 07 01 3e eb 08 ab 3d
       0.061300542 0.23249048 0.12600629 0.0835131
0002b0 d7 bb 51 3c 43 90 8c bc db cb 17 3d 6d c9 99 bb
       0.012801132 -0.017158633 0.037059646 -0.0046932013
0002c0 aa 8a b6 3c b0 d9 1e 3d 06 1f fa 3d 4f 3f 17 3e
       0.022282917 0.03878182 0.122129485 0.14770244
0002d0 2b ce f2 3d 5f 67 1f 3e 2b f0 be 3d 1a 77 a2 3d
       0.1185573 0.15566777 0.09323152 0.07932873
0002e0 6a ef 01 3e 30 4c 33 bc 10 06 49 3d 20 b2 3a 3e
       0.12688985 -0.0109434575 0.049078047 0.18232012
0002f0 41 b2 1a 3e 67 ad e5 3d 78 7b 4b 3b 1f 17 87 3c
       0.15107061 0.112147145 0.0031048935 0.016490517
000300 c4 c6 76 3d c3 fb 21 bd e2 e8 42 bd 8a 95 fa bd
       0.06024815 -0.03954674 -0.047585376 -0.122355536
000310 85 ec 53 3c f8 41 db 3d 73 51 06 3d 5d fd 10 bd
       0.012934809 0.10705942 0.03279252 -0.035397876
000320 7a da 95 bd cc 8f 2c bd 54 16 6f be 01 b4 33 be
       -0.07317062 -0.042129323 -0.23348361 -0.17549135
000330 b4 e5 aa bd 84 8a ac b8 2d bf f8 3d f8 02 f9 3c
       -0.08344594 -8.2274e-05 0.12145839 0.030396923
000340 c5 a3 a2 bd 3a e4 4a 3c 2f 29 01 be de ec 62 be
       -0.07941393 0.012383515 -0.12613367 -0.2216067
000350 be 2c a3 3d bb 9d 8c 3d 6e 84 e2 3d a8 6e 86 3d
       0.07967518 0.06866022 0.11060415 0.06564075
000360 09 4e 80 bd 3a aa 0c bd d6 b9 5b be 5c c0 87 be
       -0.06264884 -0.03434203 -0.2145761 -0.26513946
000370 d7 c1 49 be 41 be 3c 3c 5c 88 89 3c 92 6e 63 3d
       -0.1970285 0.011519969 0.016788654 0.05552537
000380 44 21 5b 3d 06 0c e1 bd 60 9a 68 bd 4d 7f 2d 3b
       0.05349852 -0.109886214 -0.05678785 0.0026473582
000390 5d 59 9d bb 7c 70 11 be 35 53 da bd 39 4e 70 3a
       -0.0048019127 -0.14203066 -0.10660402 0.00091669295
0003a0 db a7 a9 3b f2 b0 ef 3d 1b fd df bd 01 7e 0a be
       0.0051774806 0.117036715 -0.10936948 -0.13524629
0003b0 b9 09 47 bd 88 8f 9e 3b 56 ed 86 3c 66 51 3d bc
       -0.048593257 0.0048388876 0.016470592 -0.011555051
0003c0 ed f3 fc bd 3e 77 1a be ee 09 83 3c 96 14 c7 3b
       -0.12351213 -0.1508455 0.015995946 0.006075452
0003d0 ed 8a 7f bd 28 b3 f5 3c 23 aa 4a 3d 59 92 de 3c
       -0.06238835 0.029992655 0.04947866 0.027169393
0003e0 b6 2c ae bc 9f f1 b7 bd 00 59 aa bc 58 38 ad bd
       -0.021261554 -0.089816324 -0.020794392 -0.08458012
0003f0 96 61 ee bc 1f 4b 8c bc 77 51 4d 3d 27 f0 07 3e
       -0.029099267 -0.017125664 0.05012652 0.13275205

bias f4 [128]
000000 d6 ad ad 3d 31 ab cb bc 01 e6 4c 3d 9d 0c 37 3d
       0.08480422 -0.024861904 0.050024036 0.044689763
000010 68 33 eb bc 2d 73 c1 3d 12 4f 80 3d b1 6f 94 3d
       -0.028711036 0.09445796 0.062650815 0.07247866
000020 7e 76 73 3d 56 5a 90 3d 30 7a a6 3d 80 a0 85 3c
       0.059439175 0.0704848 0.08128774 0.016311884
000030 ad 06 7e ba 18 b3 10 bc 60 62 52 3c db 87 f1 bc
       -0.0009690326 -0.008831762 0.012840837 -0.029483726
000040 55 40 8b bd fc ba 88 3d e0 46 8a bd e6 be 80 bd
       -0.0679938 0.066762894 -0.067517996 -0.06286411
000050 aa 4a d0 bc 3f ca 46 bd 6f cc 45 bc be 41 85 3d
       -0.025426228 -0.04853272 -0.012072667 0.0650668
000060 70 9e bf 3d 81 22 80 3d 11 08 ac 3d 03 ca 9e 3d
       0.093563914 0.06256581 0.08399976 0.077533744
000070 90 37 e4 3d 93 89 4a bc 37 ed 5f bc 1a cb b0 3d
       0.1114341 -0.012361902 -0.013667396 0.086324885
000080 76 7f 43 bc 76 95 ab bd 27 74 8f 3d 6b dc 45 3c
       -0.0119322445 -0.08378117 0.07004576 0.0120764775
000090 f9 c4 cc 3d 12 1c 8c bd eb ef e3 3d b0 92 ca bd
       0.09998507 -0.068412915 0.11129745 -0.0989126
0000a0 18 30 85 3d da 3f 45 bd ba 80 b5 bb fb 68 f9 3d
       0.06503314 -0.048156597 -0.005539027 0.121782266
0000b0 d6 de e4 bc e8 85 17 3d 0c ac ba bc b7 3c 1d bd
       -0.027938288 0.036992937 -0.022787116 -0.03838798
0000c0 c6 71 99 3d 3a 1c d1 bb d8 3e a8 3c 90 00 d2 3d
       0.07492404 -0.0063815387 0.020537779 0.102540135
0000d0 8e 26 4c bc 86 d7 05 bd f8 f4 2e 3c 47 75 1c bd
       -0.012460364 -0.032676242 0.010678522 -0.038197782
0000e0 3f c8 a4 bd 2c 72 84 3b d2 7a c6 bc b2 66 4a 3c
       -0.080460064 0.0040419307 -0.024228487 0.012353586
0000f0 15 d4 ec bc 1c bf cb 3d 45 64 37 bd 74 09 f8 3c
       -0.028909722 0.099485606 -0.04477336 0.030277945
000100 6a cf cf bb 87 6e 32 bb e8 26 58 bd 6f f0 e9 3d
       -0.0063418644 -0.0027226524 -0.05277148 0.11422812
000110 a9 63 3a 3b af 4c 3c 3d 5f b1 13 3e b7 fc c2 3d
       0.002844075 0.04597157 0.1442313 0.09520858
000120 d0 54 f3 bc db 08 92 3d 98 ba a3 3d 9a 60 2f bd
       -0.029703528 0.07130595 0.07994574 -0.042816736
000130 16 9d 89 3b 67 d0 88 bd ae 7f 72 bc 91 a8 26 bd
       0.0041996343 -0.066803746 -0.014800949 -0.0406881
000140 2f 26 cf 3d 9d fd 3b 3d 90 5f 0d 3d d9 ee ad bc
       0.10114705 0.04589616 0.034514964 -0.021232056
000150 1d f3 64 bd 54 98 90 3d 58 3d 2e 3c d6 6e bc 3c
       -0.055895913 0.07060304 0.010634743 0.02300207
000160 44 5e 92 bd 18 ee bd bc 5b 35 ba 3d f1 1b 8a bb
       -0.07146886 -0.023184821 0.09092208 -0.0042147567
000170 66 bc f1 3d 13 00 1b bc b2 3d 00 3e f8 2c 89 3d
       0.11803512 -0.009460467 0.12523535 0.0669803
000180 5a 2d 07 bd 5a 69 8a bd a5 e1 9c 3c f1 c9 4c bd
       -0.033002235 -0.067583755 0.019150564 -0.049997274
000190 3d ca 7f 3d c7 5a 97 bd c8 32 f1 3d 3d 8e d4 bc
       0.06244873 -0.07390361 0.11777264 -0.02594673
0001a0 8e af 37 3e df 96 84 3c 09 1a 9a 3b 47 a8 60 bd
       0.17938063 0.016185222 0.0047028107 -0.05484798
0001b0 bd 1c 95 bc df b9 38 bd eb b7 a4 3b 27 f7 ae 3d
       -0.01820218 -0.045099135 0.0050268075 0.08543234
0001c0 6b b4 75 3d 59 bb db bc 1e de 35 3d dc b0 43 bd
       0.059986513 -0.026822733 0.04440128 -0.047776088
0001d0 58 f1 a0 3d d7 ac 2e 3c e8 62 36 3d 9a 04 cf bc
       0.07858533 0.010661325 0.044527918 -0.025270749
0001e0 3c 46 3e 3c 5e 52 b8 bd a6 5f d2 3c 41 43 d4 bc
       0.011613425 -0.09000085 0.025680374 -0.025910975
0001f0 63 3f 0c bc 74 73 01 3d 40 bc a7 3d 14 23 9b 3c
       -0.008560034 0.031604245 0.08190203 0.018937625

weight f4 [1, 128]
000000 f0 82 a3 be 63 82 d2 3d e1 93 d3 be 94 76 d0 3e
       -0.31935835 0.102787755 -0.4132376 0.40715468
000010 d6 fc f9 3d ce b3 82 be 58 d6 90 be c5 ef 88 be
       0.12206428 -0.25527805 -0.2828853 -0.2674543
000020 b6 eb 9c be 46 fa ab be 0f 84 99 be c3 7c b0 3e
       -0.30648583 -0.3358938 -0.29983565 0.34470186
000030 83 4e 88 3e e8 ca 29 3e 21 b6 79 3d 0d 6c a2 be
       0.266224 0.16581309 0.060964707 -0.3172306
000040 7e c6 b4 ba 12 ac 85 be 00 d1 c8 3c b2 8d 03 bd
       -0.0013792065 -0.26107842 0.024513721 -0.032117553
000050 d6 fa ae 3d d0 8b 1c 3d dc 00 a3 be 24 75 a0 be
       0.08543937 0.038219273 -0.31836593 -0.3133937
000060 ed a5 29 be 19 c6 9b be 1e c8 91 be 62 30 bc be
       -0.16567202 -0.30424574 -0.2847299 -0.36755663
000070 a1 3d be be 80 eb b8 bd eb 54 02 3e 59 b8 a4 be
       -0.37156394 -0.09029293 0.12727706 -0.32171896
000080 5a d3 c2 3d b9 67 19 3e 16 53 d8 be 88 81 5c 3d
       0.09512968 0.14980973 -0.4225089 0.053834468
000090 1d f8 77 be a7 97 b9 3d f8 20 8d be 9d 26 d7 3d
       -0.24215741 0.090621285 -0.27564216 0.10505412
0000a0 a3 37 82 be f5 42 c5 bc b4 90 2e 3e 0d f6 08 be
       -0.25433072 -0.02407978 0.17047387 -0.13375111
0000b0 bd f0 c4 be a1 05 97 bd e8 c8 cb 3d 35 87 31 3b
       -0.3846492 -0.073741205 0.09950429 0.0027088646
0000c0 2b c3 84 be 65 8d 97 be 08 99 92 be 99 f4 99 be
       -0.2593015 -0.29600063 -0.2863238 -0.30069426
0000d0 ab 15 0b 3e a6 10 8c 3d df 95 01 3e 1e 4e c8 bb
       0.13582484 0.06839113 0.12654828 -0.006112828
0000e0 4e 4f 4c 3e 9d d0 03 bf 5d df e2 be eb ab d8 3d
       0.19952127 -0.51490194 -0.44311038 0.10579666
0000f0 47 04 ae be 82 3c 8a be ff 8e 86 3b ce eb 6b be
       -0.33987638 -0.2699929 0.004106402 -0.23039171
000100 18 98 ab 3d 6b 05 f7 bd e9 0b 18 3b 89 be 49 be
       0.08378619 -0.1206158 0.0023200458 -0.1970159
000110 20 10 97 3d d0 12 b9 be 7a b9 aa be 5e ad 7d be
       0.073761225 -0.36147165 -0.33344632 -0.24773166
000120 db f3 10 be 9d 89 a6 be 88 d5 45 be ea 27 d4 3d
       -0.14155523 -0.32526866 -0.19319737 0.103591755
000130 79 f4 c3 3d 3c 80 39 3d 81 51 54 3c 90 6c 2f b9
       0.09568114 0.04528831 0.012958885 -0.00016729743
000140 15 1f 86 be ee c5 8f be 98 ea 92 be 9a e0 d6 be
       -0.2619559 -0.28080696 -0.28694606 -0.41968232
000150 a4 8a 9b 3d f9 99 81 be 74 05 0a 3e ce 38 e0 3d
       0.07594803 -0.25312784 0.13478643 0.10948335
000160 c3 88 bd 3d 6a af 5c 3d bf cc 73 be fc 80 c1 3d
       0.09254601 0.053878225 -0.23808573 0.0944843
000170 a6 c5 90 be 03 b2 e4 3d a8 27 d4 be a3 2d 77 be
       -0.28275794 0.111667655 -0.41436505 -0.24138503
000180 4e 3c ae 3d a3 16 11 3e c2 3b 86 3d d6 78 c8 3b
       0.08507596 0.14168791 0.06554367 0.0061179204
000190 38 78 b4 be f5 60 87 bd 2b fb 77 be c3 aa 33 bd
       -0.3524797 -0.0661029 -0.24216907 -0.043864023
0001a0 b7 15 af be 9c 3f 89 be 5d ed 8e 3d 84 60 53 bc
       -0.34196255 -0.26806343 0.06978867 -0.012901429
0001b0 0c ac c6 3d 2c 86 eb 3d 3e 46 fd 3e 86 93 8d be
       0.09700784 0.11500201 0.49467653 -0.27651614
0001c0 76 73 f0 bd fc 90 13 3e 1b 4a b2 be a1 ba 9b bc
       -0.117407724 0.14410776 -0.34822163 -0.01900989
0001d0 89 73 05 bf c6 d7 b0 be 34 ff 8e be a8 08 1e 3e
       -0.5212942 -0.34539622 -0.2792908 0.1543299
0001e0 7e fd 7b 3d 64 12 89 b9 ef 05 91 3d 42 5c a0 3d
       0.061521046 -0.00026144378 0.0708121 0.07830097
0001f0 3c 1f f8 3d 09 56 61 be 71 48 0e be a8 45 a2 be
       0.121153325 -0.22005476 -0.13894822 -0.31693769
